model4500.pth (torch, 15367 bytes, 5 tensors)

weight f4 [56, 26]
0	0xbfb0775b	-1.3786424
1	0x3ddc5e61	0.10760189
2	0x3ed9e7bb	0.4255961
3	0x3fa1d76f	1.264387
4	0x3f6affd0	0.9179659
5	0x3f21d47c	0.6321485
6	0x3f52b3c3	0.82305545
7	0x3f89ed5d	1.0775563
8	0x3fa01270	1.2505627
9	0x3f3859fa	0.72012293
10	0x3fa25e97	1.2685117
11	0x3f6e6d4e	0.93135536
12	0x3f8f35b4	1.1188264
13	0x3f966830	1.1750546
14	0x3f46e65c	0.7769525
15	0x3f34daa4	0.7064612
16	0x3f7b6a27	0.9820885
17	0x3f820aad	1.0159508
18	0x3f80eb03	1.007172
19	0x3f54a6a2	0.8306676
20	0x3f7c2de8	0.9850755
21	0x3ca16fa8	0.019706562
22	0xbcf0ec1b	-0.029409459
23	0x3e3f1982	0.18662074
24	0xbe2b5af8	-0.1673392
25	0xbd583db3	-0.052793216
26	0x3fe81f8d	1.8134629
27	0x3cd32481	0.025774242
28	0xbf3bc682	-0.73349774
29	0xbfdbd232	-1.7173522
30	0xbf383f86	-0.7197193
31	0xbfc0b509	-1.5055248
32	0xbf695120	-0.9113941
33	0xbf9d47c9	-1.2287532
34	0xbfb0bd6c	-1.3807807
35	0xbf605145	-0.8762401
36	0xbf895fd1	-1.0732366
37	0xbf7b700d	-0.9821785
38	0xbfac55b5	-1.3463656
39	0xbfa553d4	-1.2916207
40	0xbf682f04	-0.9069674
41	0xbf9ba8c0	-1.2160873
42	0xbf76fd69	-0.96480423
43	0xbf8cd3c8	-1.100213
44	0xbf500c50	-0.8126879
45	0xbfafc93c	-1.3733287
46	0xbf654eeb	-0.89573544
47	0x3d1c7dc5	0.03820588
48	0x3dcb3c57	0.09923618
49	0xbdce5665	-0.10075072
50	0xbe534b14	-0.20634109
51	0xbd8e2bd9	-0.06941957
52	0xbe1a0928	-0.15042555
53	0x3e24c873	0.1609209
54	0x3d675f8c	0.056487605
55	0x3da65dfe	0.08123396
56	0x3d7e0ccc	0.062023923
57	0xbb5f95c0	-0.0034116358
58	0x3e1d2a69	0.1534821
59	0xbe0eaffa	-0.13934317
60	0x3c4a5020	0.012348205
61	0xbe0911d9	-0.13385715
62	0x3d77b254	0.0604728
63	0xbd8a51d8	-0.06753892
64	0x3d762444	0.06009318
65	0xbd275be8	-0.040859133
66	0x3e268f97	0.16265713
67	0xbdee0e67	-0.11623841
68	0xbdef8a70	-0.11696327
69	0xbdef8e24	-0.11697033
70	0x3e34a0f5	0.17639525
71	0x3d85d952	0.06535591
72	0x3e413df3	0.18871288
73	0xbe25bc01	-0.16184999
74	0xbe473104	-0.19452292
75	0xbe1d1dd8	-0.15343416
76	0xbe071765	-0.13192518
77	0x3da2aec6	0.07943492
78	0x3d8fd1d6	0.07022445
79	0x3e26de61	0.16295768
80	0xbdcf6b8c	-0.10127935
81	0xbe08e742	-0.13369468
82	0x3dd51ac2	0.10405494
83	0xbda258d8	-0.07927102
84	0x3df3c4b6	0.11902754
85	0xbd3e9f24	-0.046538487
86	0x3de5c286	0.11218743
87	0xbe1c0872	-0.15237597
88	0xbdcab0c3	-0.09896996
89	0x3d74e79c	0.059791192
90	0x3d29d268	0.041460425
91	0xbd4cce64	-0.050001517
92	0x3def68aa	0.11689885
93	0x3e088573	0.13332157
94	0xbe11a1a6	-0.1422182
95	0xbdd66d0a	-0.10470016
96	0x3e37e2cb	0.17957608
97	0xbd878742	-0.06617595
98	0xbd8e63da	-0.06952639
99	0xbe4250b0	-0.18976092
100	0xbde602b8	-0.11230987
101	0x3d48aa4c	0.048990533
102	0xbcd40ed8	-0.025885984
103	0xbe11c648	-0.14235795
104	0x3b96bda0	0.004600242
105	0xbe092dad	-0.1339633
106	0xbe2a60a4	-0.16638428
107	0xbddd2bde	-0.107993826
108	0xbe2fc33d	-0.17164321
109	0xbdffbe42	-0.12487461
110	0x3e48be8f	0.19603942
111	0x3d17b8c0	0.037041426
112	0x3d778acc	0.0604351
113	0xbe3b4dec	-0.18291444
114	0xbe03e52e	-0.12880394
115	0xbd85b0ae	-0.065278396
116	0x3cfb3928	0.030666903
117	0xbe30b558	-0.17256677
118	0xbdad0ef1	-0.084501155
119	0xbdf073e7	-0.117408566
120	0x3a0e7900	0.00054349005
121	0xbd957426	-0.07297544
122	0xbc5ea8b0	-0.013590023
123	0xbe081566	-0.13289413
124	0xbe09d809	-0.13461317
125	0xbdea5227	-0.114414506
126	0xbd897b7a	-0.067130044
127	0xbe1e8175	-0.15479071
128	0x3e28624b	0.16443746
129	0xbd1f6cac	-0.038921997
130	0x3e2cc993	0.1687377
131	0x3d7a4a94	0.06110628
132	0xbe2a0e66	-0.16607055
133	0x3e0af9fd	0.13571925
134	0xbd5d0584	-0.05396034
135	0xbd99f619	-0.075176425
136	0xbe26b27a	-0.16279021
137	0xbe47a677	-0.19497095
138	0x3d65d48c	0.056110904
139	0xbd2f7960	-0.04284036
140	0x3d9c5eba	0.07635255
141	0xbe24cedb	-0.16094534
142	0x3e1518c7	0.14560233
143	0xbe136a31	-0.14395978
144	0xbd0ab504	-0.033864036
145	0x3d27c884	0.04096271
146	0x3dcf59b2	0.1012453
147	0x3e22205d	0.15832658
148	0x3e36f105	0.17865379
149	0xbe1f3ca8	-0.15550482
150	0x3d4a2988	0.049356014
151	0xbdacc220	-0.08435464
152	0xbcb00ea0	-0.021491349
153	0xbe165060	-0.14679098
154	0x3e36ebd9	0.17863406
155	0xbe1364e2	-0.14393952
156	0xbfc7d3b9	-1.5611488
157	0x3ee2485a	0.44195825
158	0x3ee0985e	0.43866247
159	0x3eaef55f	0.34171578
160	0x3f497df0	0.7870779
161	0x3f0b1759	0.543325
162	0x3f0b3a8b	0.54386204
163	0x3eca8b0e	0.39559215
164	0x3f9d49e6	1.2288177
165	0x3f24022a	0.640658
166	0x3ed75eee	0.42064613
167	0x3f5be397	0.8589415
168	0x3f1c62a4	0.61088014
169	0x3f34cd3a	0.7062565
170	0x3f1c3310	0.61015415
171	0x3eca41f3	0.3950344
172	0x3f231c0d	0.6371468
173	0x3e8e62f9	0.27809885
174	0x3f065062	0.52466404
175	0x3f1bd452	0.6087085
176	0x3f1f4479	0.62213856
177	0x3d8b20ae	0.067933425
178	0x3e1491ce	0.14508745
179	0xbe48f089	-0.19623007
180	0x3d011cf5	0.031521756
181	0x3da77d8e	0.081782445
182	0xbf9c56b9	-1.2213966
183	0xbe982816	-0.29718083
184	0x3f7d436d	0.9893101
185	0x3feb8899	1.8401061
186	0x3f9213be	1.1412275
187	0x3e2240a2	0.15844968
188	0x3f854f57	1.0414838
189	0x3fa29368	1.2701235
190	0x3eea3c27	0.45749018
191	0x3f524cc7	0.821484
192	0x3fe23cb4	1.7674775
193	0x3f210b65	0.6290801
194	0x3f2e50e7	0.680922
195	0x3f2ee593	0.6831905
196	0x3ee4dd00	0.4469986
197	0x3f5f744a	0.8728682
198	0x3f528d1f	0.82246584
199	0x3fe12a3f	1.7591017
200	0x3f7e385c	0.9930475
201	0x3f041edb	0.5160958
202	0x3eb0cd2c	0.34531534
203	0x3db6c3b9	0.0892405
204	0xbcf42385	-0.029802093
205	0xbdc33056	-0.09530704
206	0xbe03f87d	-0.1288776
207	0xbe163739	-0.14669503
208	0xbd82ebe4	-0.06392649
209	0x3d87a332	0.06622924
210	0x3e000c8d	0.12504788
211	0x3db97056	0.090546295
212	0xbe318427	-0.17335568
213	0xbdf188e4	-0.11793688
214	0xbcfd8bb0	-0.030950397
215	0x3e424415	0.18971284
216	0x3ce86780	0.028369665
217	0xbd500770	-0.050788343
218	0x3da62ac2	0.08113624
219	0xbd98fac0	-0.07469702
220	0xbe01fbd8	-0.12693727
221	0x3e1293fd	0.14314266
222	0xbdb6a10b	-0.08917435
223	0xbd210884	-0.03931476
224	0xbe47c78d	-0.19509716
225	0x3e0667a7	0.13125478
226	0x3e182681	0.14858438
227	0x3d92610e	0.07147418
228	0xbe0c0755	-0.13674672
229	0xbe46333d	-0.19355483
230	0xbe231aaa	-0.1592814
231	0x3e15c0f3	0.14624386
232	0x3dc0d51e	0.09415649
233	0x3e28fe4f	0.16503261
234	0x3dd26902	0.10273935
235	0x3d4b4e8c	0.049635455
236	0xbafbb980	-0.0019205064
237	0xbe18ba20	-0.14914751
238	0xbe2c0f3b	-0.16802685
239	0xbe3bd6e6	-0.18343696
240	0x3da46b26	0.080282494
241	0xbdc531fc	-0.096286744
242	0xbd21aa20	-0.039468884
243	0xbde72638	-0.112865865
244	0xbd1260f0	-0.035736978
245	0xbe0d589f	-0.13803338
246	0xbe03388a	-0.12814537
247	0x3d853af2	0.065053836
248	0xbd6ebc44	-0.058285013
249	0x3df7f40e	0.121070966
250	0xbd80d9fc	-0.06291577
251	0xbe13512e	-0.14386436
252	0xbd0dbb60	-0.034602523
253	0xbdc2b260	-0.095066786
254	0xbd75c2a4	-0.060000077
255	0xbe3f2ebb	-0.1867017

bias f4 [56]
0	0x3f8a5f3c	1.0810313
1	0xbf94ac5c	-1.16151
2	0x3e1f052f	0.15529321
3	0xbdd5b424	-0.1043475
4	0xbe33eb52	-0.17570236
5	0x3db0769e	0.086163744
6	0x3f3875ad	0.7205456
7	0x3f809778	1.0046225
8	0xbda84c6f	-0.082177036
9	0xbdcf184f	-0.10112058
10	0x3e2290c9	0.15875544
11	0x3f9f5e79	1.2450706
12	0x3e10d5bd	0.14144035
13	0xbf89b3b3	-1.0757965
14	0x3ef6938b	0.4815944
15	0xbe696f29	-0.2279631
16	0xbd84d320	-0.064855814
17	0x3e09eda3	0.13469557
18	0xbe7ac27c	-0.24488252
19	0x3d2b5873	0.0418324
20	0x3f5141ff	0.8174133
21	0x3db765e6	0.089549825
22	0xba64fc00	-0.00087350607
23	0x3f3f17f9	0.74645954
24	0xbcad6e40	-0.021170735
25	0xbeb2b7a9	-0.34905747
26	0xbfb1559f	-1.3854254
27	0x3fb47451	1.4097997
28	0xbf931178	-1.1489706
29	0xbd91afd2	-0.07113613
30	0xbf5c9582	-0.8616563
31	0x3dea1bd6	0.114310905
32	0xbfa4eb98	-1.2884398
33	0xbf821eb3	-1.0165619
34	0x4023b885	2.5581372
35	0xbde16328	-0.11005241
36	0x3fb31c5f	1.3993033
37	0xbfb9fea5	-1.4530836
38	0xbe0cc37a	-0.13746443
39	0x3f7c2093	0.98487204
40	0x3f47dc16	0.780702
41	0x3e1da2a6	0.15394077
42	0x3f8caafd	1.0989681
43	0x3e3c8ac5	0.18412311
44	0xbf50b859	-0.8153129
45	0xbf4449d8	-0.76675177
46	0xbff226c1	-1.8918077
47	0x3eb224b3	0.34793624
48	0x3d9b3e9e	0.07580303
49	0x3f915f43	1.1357197
50	0x40012fba	2.018538
51	0x3fba7342	1.4566424
52	0x3d76dadc	0.060267314
53	0x3d930fde	0.07180761
54	0xbdb865c4	-0.09003785
55	0x3e2c53d3	0.16828851

weight f4 [26, 56]
0	0x3e8cc996	0.27497548
1	0x3d857635	0.06516687
2	0x3c909630	0.01764974
3	0x3dabdd52	0.08391823
4	0x3db82f14	0.089933544
5	0x3d781420	0.060566068
6	0x3dd9add2	0.10628857
7	0x3c1ac25a	0.009445751
8	0x3db3f398	0.08786696
9	0x3cfc37e8	0.030788377
10	0x3da4ab62	0.08040501
11	0x3e173c41	0.14769079
12	0x3cf7e190	0.030258924
13	0xbd641fa7	-0.05569425
14	0xbc55fe14	-0.013061065
15	0x3a69d176	0.0008919457
16	0x3bfa14e0	0.007631883
17	0xbd15851a	-0.03650389
18	0x3dd1d949	0.10246522
19	0x3dadaf68	0.08480722
20	0x3d98345e	0.07431863
21	0xbc326558	-0.01088842
22	0xbc522b48	-0.012827702
23	0xbd9c9d19	-0.076471515
24	0x3c9faaf0	0.019490689
25	0xbd436227	-0.047701027
26	0xbda06406	-0.07831578
27	0xbd3d2672	-0.046179242
28	0xbd6075a0	-0.054799676
29	0x3e02e78b	0.12783639
30	0xbe5c997b	-0.21542923
31	0x3e04a795	0.12954552
32	0x3ca0f8d1	0.019649895
33	0x3a83855f	0.0010034255
34	0x3f8557b2	1.0417387
35	0x3cbbe2f0	0.02293536
36	0x3d996e81	0.0749178
37	0xbdb05c4d	-0.08611355
38	0xbd049c86	-0.032375835
39	0x3b4961af	0.003072839
40	0x3d515869	0.051109705
41	0x3d8ea2d7	0.06964653
42	0x3de44d1b	0.11147519
43	0x3cdeda00	0.02720356
44	0xbd6709d4	-0.056405857
45	0xbdd91441	-0.10599566
46	0xbdd1e423	-0.10248592
47	0xbd036bc0	-0.03208518
48	0x3d251540	0.04030347
49	0x3db7553b	0.08951803
50	0xbf4dce18	-0.803926
51	0x3fb885b5	1.4415804
52	0xbc2cb4e8	-0.010541178
53	0xbd228b12	-0.03968341
54	0xba000000	-0.00048828125
55	0x3d2fb350	0.042895615
56	0x3e99c0da	0.30029947
57	0xbf8af8a0	-1.0857124
58	0x3c8aaf48	0.016929284
59	0x3d4bd7f0	0.04976648
60	0xbd26112a	-0.040543713
61	0xbda3312a	-0.07968362
62	0x3e0eed67	0.1395775
63	0xbe987392	-0.29775673
64	0xbd77f71e	-0.060538404
65	0x3d65de00	0.05611992
66	0x3a9ed900	0.0012119114
67	0x3eb4df4a	0.35326606
68	0xbd847b5c	-0.064688414
69	0xbe4702bd	-0.19434638
70	0xbe88c8f3	-0.26715812
71	0x3cf908b8	0.030399665
72	0x3fab0a15	1.3362452
73	0x3da61386	0.081091926
74	0xbd35850a	-0.04431633
75	0x3df5b770	0.119978786
76	0x3ef76cdd	0.48325244
77	0x3dd03ffe	0.101684555
78	0xbd8153d4	-0.06314817
79	0x3cdb4ac0	0.026769042
80	0x3d05dc6c	0.032680914
81	0xbe8b7896	-0.27240437
82	0x3d5bf175	0.05369707
83	0xbe976d86	-0.29575747
84	0xbe610a53	-0.21976595
85	0xbd8273dd	-0.063697554
86	0xbdba2f72	-0.09091081
87	0x3dd789fc	0.10524365
88	0x3dd5e0c0	0.10443258
89	0x3e81b423	0.25332746
90	0x3f2faaf4	0.6862023
91	0xbc853b58	-0.016263649
92	0xbf01aec9	-0.50657326
93	0x3dc0fb20	0.09422898
94	0xbd461532	-0.048360057
95	0xbcaa8b85	-0.020818481
96	0x3d3a213c	0.04544185
97	0x3e9e5d20	0.30930424
98	0x3de70c53	0.112816475
99	0x3d4cf3e0	0.050037265
100	0xbeb3af35	-0.3509461
101	0xbeed3ce6	-0.46335524
102	0x3de63cdc	0.11242077
103	0xbfe07c62	-1.7537959
104	0xbcba5c9c	-0.022749238
105	0x3dcc629f	0.09979748
106	0x3f2700b0	0.65235424
107	0x3f2a4af2	0.6652061
108	0xbdd059b2	-0.10173358
109	0xbd0ac0be	-0.03387522
110	0x3d8d2ae8	0.06892949
111	0x3d58e8ec	0.052956507
112	0x3de268da	0.11055155
113	0xbce01aa0	-0.027356446
114	0x3d80e9e2	0.062946096
115	0xbe00c512	-0.12575176
116	0x3d53cab8	0.051707
117	0x3d7b7ce8	0.061398417
118	0x3db08b66	0.08620338
119	0xbd9cefe5	-0.07662944
120	0xbd122182	-0.035676487
121	0x3d046ba8	0.03232923
122	0xbdc27a54	-0.094959885
123	0xbdd9b423	-0.106300615
124	0xbe03a4cf	-0.12855838
125	0x3bf47000	0.0074596405
126	0x3da9f2fe	0.082983
127	0x3d0c97b0	0.034324348
128	0x3c057a10	0.008146778
129	0x3d3eb614	0.046560362
130	0xbdabfa94	-0.08397403
131	0x3c66d1f0	0.014088139
132	0xbd07f992	-0.033196993
133	0xbd878239	-0.06616635
134	0x3dec02aa	0.11523946
135	0xbdd3bad3	-0.10338368
136	0x3ca06d38	0.01958333
137	0xbdf07b6b	-0.1174229
138	0xbb948f00	-0.0045336485
139	0xbd7338d6	-0.059380375
140	0x3d3428c0	0.043984175
141	0xbd99ade0	-0.07503867
142	0x3daf29c4	0.08552888
143	0xbdde1421	-0.10843683
144	0x3da46118	0.08026332
145	0xbdcd9455	-0.10038058
146	0x3d92939c	0.071570605
147	0xbd66789c	-0.056267366
148	0xb9a33600	-0.00031130016
149	0xbcc7c974	-0.024388053
150	0x3db19fa6	0.08673029
151	0x3d3361cc	0.04379444
152	0xbdf129ff	-0.11775588
153	0x3c494b80	0.012286067
154	0xbdbccc66	-0.092186734
155	0x3dcc96da	0.0998971
156	0x3cb3dbf8	0.021955475
157	0xbd0cc4a8	-0.034367234
158	0xbd8b9ef1	-0.06817425
159	0x3d3d743c	0.046253428
160	0xbda3e74a	-0.08003099
161	0x3d81cb40	0.06337595
162	0x3d955684	0.07291892
163	0x3da7fba2	0.08202292
164	0x3d0efd24	0.034909382
165	0xbdef9128	-0.11697608
166	0x3dc4dc06	0.09612279
167	0xbd29cd16	-0.04145535
168	0xbd6602cd	-0.056155015
169	0xbcfe006b	-0.031006059
170	0x3dc817fe	0.09770201
171	0x3dd26fb6	0.102752134
172	0x3ca90900	0.020634174
173	0x3d8295b4	0.0637621
174	0xbe1094bf	-0.14119242
175	0xbc85c853	-0.016330874
176	0xbdf21dc2	-0.11822082
177	0x3d3a4a68	0.045481116
178	0xbdc2fade	-0.09520505
179	0xbd83a2e7	-0.064275555
180	0x3dbf4ec8	0.09341198
181	0x3de37409	0.11106116
182	0xbdc66813	-0.09687819
183	0xbd97e494	-0.07416645
184	0xb8b0aec9	-8.42489e-05
185	0x3d572aa4	0.0525309
186	0xbd1d57dc	-0.038413867
187	0xbd2aeeb2	-0.041731544
188	0xbdd5dbfd	-0.1044235
189	0x3d69a6a0	0.05704367
190	0x3e061183	0.13092618
191	0xbda693f3	-0.08133688
192	0x3d811532	0.06302871
193	0x3d4720e2	0.048615344
194	0x3db9e1da	0.09076281
195	0xbd028091	-0.03186089
196	0xbc4bd163	-0.012440058
197	0x3dc911b0	0.09817827
198	0x3dacfe7e	0.08446978
199	0x3e0727d7	0.13198791
200	0xbd610c91	-0.054943625
201	0x3d146287	0.036226775
202	0x3d9d0115	0.07666222
203	0xbdb9c67a	-0.090710595
204	0x3c223abf	0.0099017015
205	0xbd3eaa84	-0.046549335
206	0x3dafecde	0.08590101
207	0xbd9d0333	-0.07666626
208	0xbbee6f92	-0.007276484
209	0x3d81a54b	0.06330355
210	0xbe0e6877	-0.13907038
211	0xbde714cc	-0.112832636
212	0xbd8c2c17	-0.06844347
213	0x3d8d715e	0.06906389
214	0x3d9568e4	0.07295397
215	0xbddd01b9	-0.10791344
216	0x3cd0bee8	0.025481656
217	0xbdb31ccc	-0.08745727
218	0xbd7e0df0	-0.06202501
219	0x3dc9ed83	0.09859755
220	0x3d843012	0.06454481
221	0xbd15b0f0	-0.036545694
222	0x3ca12450	0.019670635
223	0x3cd41b28	0.025891855
224	0x3d7a28dc	0.061074123
225	0xbd839ec2	-0.06426765
226	0xbda129de	-0.07869314
227	0x3db530ce	0.088471994
228	0x3c931910	0.017956287
229	0x3d6517f4	0.055931047
230	0xbd8da8a4	-0.06916931
231	0x3d6a870f	0.05725771
232	0x3dc72bf0	0.09725177
233	0x3da67134	0.081270605
234	0x3d14d28c	0.036333606
235	0x3de82b00	0.113363266
236	0xb9993a00	-0.00029225647
237	0x3c216ae3	0.009852144
238	0x3dded1c7	0.108798556
239	0x3e04fe01	0.1298752
240	0xbda39caa	-0.07988866
241	0x3df6871e	0.1203749
242	0x3cfed571	0.031107636
243	0xbc7513a8	-0.0149583
244	0x3e0f1397	0.13972317
245	0xbd8dc59c	-0.069224566
246	0x3db1d1fe	0.08682631
247	0x3dec4a8d	0.11537657
248	0xbdbcc12c	-0.09216532
249	0xbdc66b90	-0.09688485
250	0xbe1a065d	-0.1504149
251	0xbd28b525	-0.041188378
252	0xbe0ee6b8	-0.139552
253	0xbd3751e4	-0.04475583
254	0x3ced3fd1	0.028961094
255	0x3dc17482	0.0944605

bias f4 [26]
0	0x3f368589	0.7129751
1	0x3fc4f483	1.5387119
2	0x3dabf3a0	0.08396077
3	0xbdf3c148	-0.119021
4	0xbca4ec7d	-0.020132298
5	0x3f46fea4	0.777323
6	0x3fa0bf9f	1.2558478
7	0xbcf66de0	-0.03008169
8	0xbbff11e0	-0.0077841133
9	0xbcf17f42	-0.029479627
10	0x3f5be448	0.85895205
11	0xbf4601e3	-0.7734663
12	0x3daa6392	0.08319773
13	0x3d566438	0.05234167
14	0xbf0eb8bd	-0.5575064
15	0xbf1a450e	-0.6026162
16	0xbe287995	-0.1645263
17	0x3d8b7264	0.06808928
18	0x3f5a6bc0	0.85320663
19	0x3f34f5da	0.7068764
20	0xbb964880	-0.0045862794
21	0xbf5ac048	-0.8544965
22	0xbdef7aae	-0.11693321
23	0x3f3f4135	0.74708873
24	0x3f0cc7d8	0.5499244
25	0xbd4dbe7f	-0.0502305

weight f4 [1, 26]
0	0x3e1a21f7	0.15052019
1	0xc0158c62	-2.3366933
2	0xbddcc714	-0.10780159
3	0x3df32556	0.11872356
4	0xbe3bb057	-0.18328987
5	0x3d9bd317	0.076086216
6	0x3f7e7d7b	0.9941022
7	0x3e168ded	0.14702578
8	0x3d890242	0.06689884
9	0xbe2c3d9b	-0.16820376
10	0x3ce30c94	0.027715959
11	0xbdd5c270	-0.10437477
12	0xbd61d024	-0.05513014
13	0x3e19de77	0.1502627
14	0xbe8c2f95	-0.27380052
15	0xbe861289	-0.26186016
16	0xbf4a3842	-0.7899209
17	0x3dfd97ba	0.12382455
18	0x3fde311b	1.7358736
19	0x3e741637	0.238366
20	0x3d2446a0	0.040106416
21	0xbe4c76fb	-0.19967262
22	0x3d46bd94	0.04852064
23	0x3e3dbf27	0.1852995
24	0x3ed3651f	0.41288087
25	0x3d387e05	0.045042057
